models/model_g.pth.tar (torch_old, 136950 bytes, 31 tensors)

fc1.weight f4 [64, 100]
00000000: 1204 73bd f7e0 0abe 9573 6a3c 7d6b 3abd
00000010: 8f87 2abd 2520 adbc 0d5c c1bb 0ef7 54bd
00000020: 2cb0 b1bc f1ed 15be f975 a6bd d0cc 00be
00000030: 32ae e2bc b5b7 153c a288 06be 1df1 82bd
00000040: b823 1b3d 3d65 a9bc 8c1e 43bd 7ddc 283d
00000050: 0c5d 47bd bce0 793c e53f dcbc 59b5 f0bd
00000060: a6c3 0fbe c50a 3f3d dbb0 eb3b 23cd 33bd
00000070: 6573 b7bd 2c8e 313d bec2 21bd 2f55 cdbb
00000080: 3122 8dbd 3d04 adbd e829 0fbe 0eb0 19be
00000090: 14e4 4dbd ba4a 12be b639 db3c a77d b1bc
000000a0: 9849 13be 43bd d4bd 351f e9bd 37f9 f93c
000000b0: 7012 dabd 2fd9 17be 393b edbd 4c74 86bd
000000c0: 5732 babb d81f 1a3d bc51 1c3e 4882 4a3e
000000d0: 3f34 993e 2fb6 8f3e 444b 763e ac19 793e
000000e0: b864 9a3e cdb4 953e 79b6 973e 76a5 443e
000000f0: f505 a63e 4205 8a3e fd11 6d3e 32e0 453e
00000100: 9649 0e3e 9e72 563e 213b 553e 1314 803e
00000110: 7a4b 953e 4746 793e 57f9 073e ec4d 7d3e
00000120: 6673 663e 52a9 6a3e 9240 743e 0daf 8f3e
00000130: 730b 863e 9a4a 4d3e d70c 963e 566d 1b3e
00000140: 8f22 783e ac1c 683e 0eb7 9e3e 565d 6d3e
00000150: 47dd 113e fcd5 763e 0c47 aa3e a851 163e
00000160: c8b1 1f3e 5a81 993e 1ea6 9f3e 9b12 2b3e
00000170: d7ed 943e 0e54 253e c4bf a73e 465b 3e3e
00000180: 69fa 5d3e 96aa 8d3e 2abe 963e c17f 553e
00000190: 94e2 dbbc bd2f 83bd d05f f73b 0043 4cbc
000001a0: 4028 3f3b 4a0c 2a3d c0c0 fcba 4ca0 8bbd
000001b0: 2d4b 5dbd 8079 a23a 806e 0bbd 7a5b 63bd
000001c0: 2ad3 183d 60b9 dcbb 1e1a 283d a44d 89bd
000001d0: 6dd4 aa3d 762d 3f3d 5a5b 13bd 0058 3d3a
000001e0: db7f a73d 54a2 ec3c 46ee 703d 9b0c bebd
000001f0: 1976 b93d 9b4c 943d a21d b1bd fa02 6ebd
00000200: 9793 44bd d7c2 b83d b02f 8ebd 9b59 c9bd
00000210: 829f 033d 7858 bdbc a900 b53d 4ac4 95bd
00000220: a881 b73c 784c 86bc f769 a43d 3233 783d
00000230: 33c9 853d 7e16 4c3d d30e a33d e8a9 c3bd
00000240: ad81 73bd d81a 40bc 52ad 1f3d 2039 cdbc
00000250: 1097 0dbc a021 7a3b ece7 8e3c 47ea b8bd
00000260: 8a3d 8fbd 7a99 01bd c19a 8f3d b8a1 b5bd
00000270: 3620 673d 2040 ee3b 2ac2 82bd 1859 0f3c
00000280: 2a72 1abd 76a3 063d f8fb a8bd 9a64 1dbd
00000290: 2532 b1bd 2270 4f3d a8eb c73c 4bd5 893d
000002a0: 20d9 a2bb e3e0 bdbd a03b debc 68b7 9fbc
000002b0: d7a3 853d a8e2 7b3c 2309 54bd b161 c63d
000002c0: 8510 b6bd 224c 86bd aeba 8dbd da5f 86bd
000002d0: 70fd 293c d01e f8bb 17db ad3d 742e e9bc
000002e0: 91e6 863d e9de c13d d3c4 923d 932a 31bd
000002f0: 83b1 c73d 9f35 b4bd 68a1 45bc 0063 1f3a
00000300: 809b 9a3a 808c a8bc 989b 1e3c 51d8 bc3d
00000310: 29d2 c13d 4075 5cbd ac88 db3c c8ec f7bc
00000320: 9ef8 8fbd 1af7 70bd 9405 94bc 62c6 353d
00000330: 82ee a3bd 1898 493c 4332 b5bd 4086 1dbd
00000340: 004d 8cbc 30fd 183c aabf 613d 0616 7f3d
00000350: 2e70 473d a093 0bbd 18ee 0fbc 3683 4b3d
00000360: 56d4 283d e757 3cbd e096 bebc 1805 acbd
00000370: efa7 9a3d 3dbc 3cbd 7d50 59bd a5cb a43d
00000380: a8f2 03bc 82b0 053d 2a3f a8bd 0260 84bd
00000390: 986e 86bc 9158 ae3d 3097 c43b 8eec 9fbd
000003a0: e013 a0bb da3e 40bd d760 26bd 8f34 8c3d
000003b0: 52d5 88bd a532 b33d f01d 2c3c 1ad0 443d
000003c0: d038 23bd 57a6 43bd 4a5b 32bd 4312 b6bd
000003d0: 4da3 7abd e8d5 70bc 03db 5abd f0bb bdbd
000003e0: d4db e2bc c0b1 4b3c d7e2 7cbd 4069 2bbb
000003f0: b4ab fdbc fa9f c7bd a870 b5bc f04e 2dbd
-0.059330054 -0.1356238 0.0143097835 -0.045512665 -0.041633185 -0.021133492 -0.005900866 -0.051993422
-0.02169045 -0.14641549 -0.0812797 -0.1257813 -0.027670953 0.009138037 -0.13138059 -0.06393645
0.03787586 -0.020678157 -0.047636554 0.0412259 -0.04867272 0.015251335 -0.026885936 -0.11753339
-0.14039478 0.04664113 0.0071927137 -0.043896805 -0.08957557 0.043348476 -0.03949236 -0.006266258
-0.06891287 -0.08448074 -0.1398083 -0.15008566 -0.05026634 -0.14286318 0.026760917 -0.021666361
-0.14383543 -0.10387661 -0.113829054 0.030514343 -0.10648048 -0.14828943 -0.115835615 -0.065651506
-0.0056822705 0.037628025 0.15265554 0.19776261 0.29922673 0.28068683 0.24052149 0.243262
0.30154967 0.29239503 0.29631403 0.19203743 0.3242642 0.26957136 0.23151393 0.19323805
0.13895258 0.2094216 0.20823337 0.25015315 0.29159147 0.24343215 0.1327871 0.24736756
0.22504959 0.22916153 0.23852757 0.2806324 0.2618061 0.2004799 0.2930667 0.15178427
0.24231933 0.22667187 0.30999035 0.23180136 0.14244567 0.24105066 0.3325733 0.14679587
0.15595162 0.299815 0.31181425 0.16706316 0.29087707 0.16145346 0.32763493 0.18589506
0.21677555 0.2766921 0.2944196 0.20849515 -0.02684144 -0.0640559 0.0075492635 -0.012467146
0.0029168278 0.041515626 -0.0019283518 -0.068176836 -0.05402677 0.0012395829 -0.034040928 -0.05550716
0.037310757 -0.0067359656 0.041040532 -0.06704262 0.08341298 0.046674214 -0.03597579 0.0007222891
0.08178683 0.028885998 0.058820985 -0.09279748 0.090557285 0.07241174 -0.0864823 -0.058108307
-0.047992315 0.09021538 -0.069426894 -0.09831544 0.03213454 -0.023113474 0.088380165 -0.0731283
0.022400692 -0.016393885 0.08028024 0.0605957 0.06532516 0.049826138 0.07961812 -0.095538914
-0.05944984 -0.01172515 0.03898365 -0.025051653 -0.008641973 0.0038167015 0.017444573 -0.0902906
-0.069941595 -0.031640507 0.07011939 -0.08868736 0.056427203 0.007270828 -0.0638469 0.008749269
-0.03770653 0.032870732 -0.08251184 -0.03842602 -0.086521424 0.050644048 0.024404362 0.067301355
-0.004969731 -0.09271409 -0.02712804 -0.019496635 0.065253906 0.015373863 -0.051766526 0.09686602
-0.088898696 -0.0655749 -0.06920372 -0.06561251 0.010375366 -0.0075720325 0.08489054 -0.028464533
0.06586946 0.09466345 0.071664475 -0.043253493 0.097506545 -0.0879929 -0.012062408 0.0006080121
0.001179561 -0.020574808 0.009680651 0.092209466 0.09463913 -0.053822756 0.026798569 -0.030264273
-0.07029842 -0.058829404 -0.018069066 0.044378646 -0.08004476 0.012304328 -0.08847477 -0.03845811
-0.01712656 0.009337708 0.055114426 0.062276863 0.048690967 -0.034076333 -0.008784793 0.04968568
0.041218124 -0.045982268 -0.023265302 -0.08399409 0.07551562 -0.046077956 -0.053055275 0.080466546
-0.008053459 0.032639034 -0.082151726 -0.064636245 -0.016410157 0.085129865 0.0059994683 -0.07808791
-0.004885182 -0.04693494 -0.040619697 0.06845962 -0.066813126 0.08749894 0.0105051845 0.048050024
-0.039849102 -0.047766056 -0.04354409 -0.08890202 -0.061190892 -0.014699437 -0.053431522 -0.09264362
-0.027692713 0.012432516 -0.06173977 -0.0026155263 -0.030965663 -0.0974731 -0.022148445 -0.04231161

fc1.bias f4 [64]
00000000: 7a98 afbe b4eb 9bbc 4a7d c0bd f98c 04bd
00000010: eee9 a03d dd1b 57bd 4c0d 223e 2bd5 55bd
00000020: 96e6 2fbd aeae 723e a143 6fbd 1899 283f
00000030: e4f4 dc3d 191a 08bd 6419 d0bd 1616 80bd
00000040: 1a88 30bd d5a0 973d 3b86 3b3e d8e2 ad3d
00000050: da90 213f 101e f4bc e3cf 17bd cf10 0ebe
00000060: fc05 bcbd 3dcf 103e d6c6 e1be 3428 85bd
00000070: bc8a dabd 6343 a6bd d3c3 1ebd 80c9 87bd
00000080: 9bbc e5bd c2e3 8abe 6eae 09be b399 82be
00000090: ef34 89bd cbd2 babd 1e66 173d 5439 a33e
000000a0: 9d22 4abd 842b c23e 8352 2ebe 8a96 48bd
000000b0: b08b 87bc 74be 713e 90cb 32bd 9971 03be
000000c0: 4208 3e3d f73b 8fbd abb2 45be 7dda 153c
000000d0: 3a9b 5f3e f1ea 13be 9a30 1ebd 88cd 83bc
000000e0: 37f2 81bd c696 3e3e 6c20 a9bc 7367 a9bd
000000f0: c31a 47bd 364e a4bd 3f19 a2bd 83c5 4cbe
-0.34296018 -0.01903329 -0.09398897 -0.032361005 0.078571185 -0.052516807 0.15825385 -0.052205246
-0.042944513 0.23699448 -0.058414105 0.658586 0.10788897 -0.033228014 -0.10161093 -0.062542126
-0.043098547 0.07403723 0.18312924 0.08490533 0.6311165 -0.029799491 -0.03706349 -0.138736
-0.09180829 0.14141555 -0.44097012 -0.06501809 -0.10670993 -0.08118322 -0.03876097 -0.0663023
-0.11217614 -0.2712689 -0.13445446 -0.25507888 -0.066995494 -0.09122237 0.03696262 0.31879675
-0.049349416 0.37923825 -0.17023663 -0.04897169 -0.0165461 0.23607808 -0.043651164 -0.12836303
0.046394594 -0.06993859 -0.19306438 0.00914633 0.21836558 -0.14445092 -0.03862057 -0.016089216
-0.06345027 0.18612203 -0.020645343 -0.082716845 -0.048609506 -0.0802273 -0.079149716 -0.1999722

fc2.weight f4 [32, 128]
00000000: 37aa 94bb 1474 c9bd cc2a e53d 0bf0 9bbd
00000010: 353a 55bc cfa7 0a3d ee44 2a3e cbe6 a13d
00000020: 8200 353e 4388 64bd 448e e7bd 947a 66bd
00000030: 2472 12be c1d7 ad3d 5c09 8e3d 0629 81bd
00000040: 2052 e53d 83fb d0bd 7532 91bd 5b6a bd3d
00000050: 56de 9abd e4bb 5bbc d71a f6bc b3d2 1e3d
00000060: 9732 47bd b570 fb3d 758b 343d 9de2 af3d
00000070: 483d 0dbd cd02 07bd 80ff 35be b600 0fbe
00000080: fb14 643d 413a 2d3e 63fd 93bd a94e f9bd
00000090: 8e71 4b3d 82ef 6dbd 7336 dfbc 1825 d5bd
000000a0: ab77 2c3e b276 c7bd efe3 e7bd 0153 4cbc
000000b0: d37a b83c df8f 243d 71e9 c3bd 7403 3dbd
000000c0: 0645 8c3b 377b 043e 7b40 333a 8358 1fbd
000000d0: ac77 a53c 2298 053e 60e1 253e 6486 173e
000000e0: 4a50 1d3e 1319 bfbd 2332 493e 28cb ecbd
000000f0: 3581 443d 8ca0 c13c 87de 4a3d 77f5 bbbb
00000100: 1511 7539 0d08 e8bd 1c24 233e 36d5 8b3d
00000110: 88d2 a13d 6d07 8cbc 26fd 643c f334 7c3d
00000120: a295 273d fff3 c0bd 9e41 a03d 9ff8 adbc
00000130: 7fa1 29bd 0eaf d83d 9660 97bb 746c 173d
00000140: 6f0c 2e3d 73fd 17bd 9de3 0b3d 86bc acbd
00000150: 6d9b 89bd 1472 e2bc 9b3e 3abd f9d9 f03c
00000160: 45b6 c1bd 6f2d 6fbd 236f 83bd e2b3 3bbd
00000170: e979 cf3d c9ef 343d f91f c4bd 0ef8 093c
00000180: 6a74 8eba c60f 52bd efc3 c13b dd9b edbc
00000190: edf1 bdbd acde 903d fc29 a33d 0a77 38bd
000001a0: e377 083d dfd1 773d 301f 963d 51be 0b3e
000001b0: 470b 943d b305 5dbd 3edc cbbd d372 1e3d
000001c0: 568c c8bd c92a 933d 4235 5f3d 52ae 4dbd
000001d0: 713a 153d 9e07 ad39 5fb3 693b b9df ba3b
000001e0: 990d 03be 1af0 333d c3cc 963e 74bf 463c
000001f0: ef68 44bc 57a2 fe3b ce88 08bd 6a2f 91bd
00000200: 3e0d 813d a740 0c3e bd64 16be e654 fcbd
00000210: 65dc a3bd 2532 3e3d 49d1 4dbd a5ea b8bc
00000220: abef 8f3d 254d e5bc 80db e03a df6d fcbd
00000230: de58 59bd f1fc eb3d a3ac 1c3c 0344 ff3c
00000240: f277 a93d 0036 89bd 8d58 38be a0b8 b03d
00000250: e6d7 643d cdad 283d 59c2 aebc 42a8 473d
00000260: c281 c9bc b9b1 b93c d3d5 833d 2f5d 1a3d
00000270: 7077 8d3b 243c 183e 6c71 2f3d 1ff1 0b3e
00000280: d1f2 d63c 3eca 8a3d b0b4 a23a de5c 0bbd
00000290: 7331 0a3e dd05 11be 59c0 503d 3d85 95bc
000002a0: 8e9b 283e 3695 e4bd db38 97bd 4d74 b1bc
000002b0: b06f edbc b77d 8a3a 5ba0 133e cf98 cf3b
000002c0: a825 11be d578 203d 0563 193d 2ee2 cabd
000002d0: 1235 16bd 4735 1abe f473 9ebc 1f53 b03d
000002e0: 8376 22bd 5fbc be3c d50b 8e3c 8e79 58bd
000002f0: 19ce 493d 4f5f 0abe d300 bbbd eaf9 86bd
00000300: 491a cc3d 89ab 72bc 9518 5fbd eab6 063c
00000310: a85e 14bd a142 8e3b 45db afbd 407b 32bc
00000320: 1ffe b4bc b492 133b 03d7 85bd 6ce8 4d3d
00000330: 741e 373e 2873 1e3e f885 a7bd 6fcc b63d
00000340: 268b 863c 22eb d3bc aa6b 1ebe 4132 0abe
00000350: 754e 21bd c355 e13d 5d5d 48bd 93fe 4e3d
00000360: 5e31 81bd 27f5 babb d566 d6bb 2154 bf3d
00000370: 4260 a3bd 59a7 74bd 2868 f8bc 6202 963d
00000380: de36 df3c 5b8d a7bc 8342 7ebc c520 ccbd
00000390: 9791 cb3b 45a5 bfbd 1e38 003d a908 693d
000003a0: e86b 8ebc 8548 f0bc 8cf8 a23c 2f07 00be
000003b0: 28a8 c43d e555 1d3e f388 d03d 5fc9 e73d
000003c0: ada8 94bd 87c2 ae3a 8b9b 55bc 7f60 5db9
000003d0: 9f4a 50bc cfc0 b5bd bf8c babc 04a0 11bd
000003e0: 02cc a6bd 4d98 3d3b 9fbb a2bc 0664 ecbd
000003f0: e008 e73d 5bf3 c9bd 07f4 87bb 2544 60bd
-0.0045368928 -0.09836593 0.111898035 -0.07614144 -0.013014366 0.03385144 0.16627857 0.079053484
0.17675975 -0.05579401 -0.11306432 -0.056269243 -0.14301354 0.084884174 0.06935379 -0.06306653
0.11197305 -0.10204222 -0.07089702 0.09248801 -0.075619385 -0.013411496 -0.030042095 0.038775157
-0.04863223 0.122773565 0.04407831 0.08588145 -0.03448227 -0.032961655 -0.17773247 -0.13965115
0.05568407 0.16916753 -0.07226064 -0.12173206 0.04966884 -0.05808974 -0.027247643 -0.10407466
0.16842525 -0.09739436 -0.11322772 -0.012470962 0.022519505 0.04017627 -0.0956601 -0.04614587
0.004280689 0.12937628 0.00068379164 -0.03890277 0.020198666 0.13046315 0.16199255 0.1479736
0.15362659 -0.093309544 0.19648032 -0.115621865 0.047974784 0.023636125 0.049528625 -0.005736049
0.00023371384 -0.113296606 0.15931743 0.06827776 0.07901484 -0.017093385 0.013976371 0.061573934
0.040914185 -0.094215386 0.078250155 -0.021236716 -0.04141378 0.10580264 -0.0046196682 0.036968663
0.042492326 -0.037106942 0.034152616 -0.084343955 -0.06719098 -0.027642287 -0.04546986 0.029400812
-0.09458593 -0.05839294 -0.06417682 -0.045825846 0.101306744 0.04417399 -0.09576411 0.008420957
-0.0010868434 -0.051284574 0.0059132497 -0.029004985 -0.09274659 0.07073721 0.07966992 -0.0450354
0.033317458 0.060502883 0.07330167 0.13646819 0.072287135 -0.053960513 -0.09954117 0.038683724
-0.09792392 0.07185895 0.05449415 -0.050215073 0.036432687 0.00033002807 0.0035659892 0.0057029394
-0.12798156 0.04393015 0.29453096 0.012130607 -0.011987909 0.0077708173 -0.033333592 -0.07089122
0.06301354 0.13696538 -0.14686866 -0.123208806 -0.08001021 0.04643454 -0.050248418 -0.022572825
0.07028135 -0.027990887 0.001715526 -0.12325644 -0.053063266 0.11522854 0.009562644 0.03116036
0.08274831 -0.06699753 -0.1800253 0.086289644 0.05586996 0.041181374 -0.021332907 0.048744448
-0.024598006 0.022667753 0.06437268 0.037686523 0.0043172166 0.14866692 0.042832777 0.13666199
0.02623883 0.06776856 0.0012413468 -0.034024112 0.13495426 -0.14162393 0.050964687 -0.01825201
0.1646559 -0.11161272 -0.07383891 -0.021661902 -0.02898392 0.001056603 0.1441664 0.006335355
-0.14174521 0.039177734 0.037447948 -0.099064216 -0.036671706 -0.15059386 -0.0193424 0.08609604
-0.039663803 0.023283182 0.017339626 -0.0528503 0.049268816 -0.1351292 -0.091310166 -0.06590636
0.09965951 -0.014811405 -0.054466803 0.008222321 -0.036223084 0.004341439 -0.08586744 -0.010893643
-0.02209383 0.0022517862 -0.06535151 0.050270483 0.1788271 0.15473616 -0.081798494 0.08925711
0.016423773 -0.025868956 -0.15470758 -0.13495733 -0.039381463 0.11002686 -0.048917163 0.05053575
-0.06308244 -0.005705494 -0.0065430203 0.09342218 -0.07977344 -0.059729908 -0.030323103 0.07324673
0.027247842 -0.020453146 -0.015518787 -0.09967188 0.006212424 -0.093576945 0.031303518 0.056893025
-0.017385438 -0.029331455 0.019893907 -0.1250274 0.09602386 0.15364797 0.10182371 0.11317705
-0.07258735 0.001333312 -0.013037573 -0.0002111215 -0.012713104 -0.08874666 -0.022772191 -0.035552993
-0.0814438 0.002892989 -0.019864855 -0.115425155 0.1128099 -0.098608695 -0.0041489634 -0.054752488

fc2.bias f4 [32]
00000000: 9bee f5bd a4ee 1abe 48e3 423e 94f7 9b3d
00000010: f59f 113e f966 f8bd 79b4 5dbd a130 07be
00000020: 00e2 d53d 3c46 a7bd 2b87 733d ce65 dd3d
00000030: b49e 44be c8e9 b13c 8978 5abd 37dc 963d
00000040: 1c11 583d c185 2b3c 0886 cabe bdcc 6abe
00000050: 937e f0bd bf57 273c f3fc e6bd 99c4 b83d
00000060: c6e3 aabd 28f9 79bd 3c47 8bbd d0f5 05be
00000070: d65d 8ebe 5dc3 39be 1762 99be 5b66 5cbe
-0.12008401 -0.15130097 0.19032013 0.07615581 0.14221175 -0.121290155 -0.05412719 -0.13202144
0.10443497 -0.08167693 0.059455078 0.10810433 -0.19201165 0.02171792 -0.053337608 0.073662214
0.05275069 0.010468901 -0.39555383 -0.22929664 -0.11742892 0.010213791 -0.11278715 0.09021873
-0.083442256 -0.06102863 -0.06800696 -0.13082051 -0.27805966 -0.18140931 -0.2995765 -0.2152342

fc4.weight f4 [1, 146]
00000000: 9b42 c13d 93cd 6d3d e6a4 fe3b e67b 923c
00000010: 17d1 f43d 04f3 8d3d 2200 ee3d 4d35 f33c
00000020: 5eab 1c3e 5782 703d 3b0e 813d dcfd 5d3d
00000030: fb69 813d 6111 4a3d b721 bb3d 6e55 843d
00000040: 2f6b be3d 131f 283e 4fbc ad3d 5c8c 443d
00000050: 280e 1f3e b7f1 033e cd10 0a3e 971c f63d
00000060: c012 293e a7b1 a13d 1df8 193e bd3e ee3c
00000070: 442e 693d 8ee7 083e ce54 ea3d 1ce4 b03d
00000080: 6eeb 723d 6d3e 003e ad46 8a3d a878 6a3c
00000090: 9dcd b23d e19c 1d3e 572d 0a3e aec4 4e3d
000000a0: 0791 c03c 08f0 2e3e bd4f 8b3d 37b9 f53d
000000b0: ca58 f53d a405 0b3e e6f4 f23d 3fc5 273e
000000c0: 3b1e 223e 7b83 ed3d e406 813c bb82 5aba
000000d0: c9fa 6e3a 3cfb 53ba 5ecb 2fbc 98a9 9bba
000000e0: 386d f4bc bd9d eab8 7a66 e8bc 85c0 c8bb
000000f0: 87be 0dba b11e 503c 7bfa 933b 71ad 3739
00000100: 6a1b a2bc cd65 513a 4e61 a03a 51de 79bc
00000110: 1db4 f2bc 8099 eabc decf 8e3c 1488 3538
00000120: 39ce fdb9 350e 0b3c 9290 75ba f256 bcbc
00000130: 44ed f6bc ab0d 883a 23cb 83b7 6e1d d5bc
00000140: 4250 ad39 87d7 bc3a 7856 00bd b547 aebc
00000150: 042b 973b 5f28 59b9 1124 f9bc 55b6 0a3a
00000160: 7997 373b 6839 8f3c f956 d5bc 4578 853c
00000170: dc31 793c 4f1a b53a 45b4 38b8 35af 1b3c
00000180: e53b bbb9 b763 9039 bd22 37bc 6c05 d7bc
00000190: ce56 34b9 40e1 a9bc f6f3 ad3b 6c32 94b8
000001a0: 5009 dbbc 0b00 d4bc 60e1 e3bc 28ff 583c
000001b0: c1f9 9e3a ae9d d5bc d08b 9d3a c01d db39
000001c0: d1d1 d8bc 70cf 8cb9 ff81 cbba c15b ebbb
000001d0: cdc0 4abb fc79 893a 6206 1938 151f acbb
000001e0: f754 c2ba 2979 6eb9 494c 38bb 4bc8 03bc
000001f0: 0099 79bb 1069 14bc bccf bdb9 683d edbb
00000200: 4cf0 c1bc 230e 36bb ec4c fb3a 297a a5bb
00000210: fd60 14bb 762a bcbb 6b54 c7b8 ba9a b3bb
00000220: ec99 35bc bd62 39ba 0b7d b4ba 8e32 5dbb
00000230: 933d 44bd 259e 41bc c11f f6bc be26 cfbb
00000240: 1a85 7d3c 01de 8e3c
0.09436532 0.05805738 0.0077711223 0.017881345 0.11953943 0.06931117 0.11621119 0.029688502
0.15299746 0.05871805 0.06301542 0.054197177 0.06319042 0.04933298 0.0913729 0.06461607
0.092977874 0.16418104 0.08483183 0.04798542 0.15532744 0.12885176 0.13482971 0.12017172
0.16511059 0.078952126 0.15036054 0.02908265 0.056928888 0.13369581 0.114419565 0.086372584
0.059306554 0.12523814 0.067517616 0.014310993 0.08730624 0.15391876 0.13493858 0.050480537
0.023506654 0.17083752 0.06802318 0.119982176 0.11979826 0.1357637 0.11863117 0.16383837
0.15831845 0.115973435 0.015750356 -0.00083355204 0.00091163494 -0.0008086448 -0.010729639 -0.0011876104
-0.029837236 -0.000111873705 -0.028369177 -0.0061264657 -0.0005407114 0.01270263 0.0045159436 0.00017516852
-0.019788463 0.0007987887 0.001223603 -0.015250758 -0.0296269 -0.028637648 0.017433103 4.3280495e-05
-0.00048409568 0.008487274 -0.0009367551 -0.022990678 -0.030142434 0.001038005 -1.571101e-05 -0.02601501
0.00033056928 0.0014407494 -0.031332463 -0.021274427 0.004613282 -0.00020709772 -0.030412706 0.0005291452
0.0028013869 0.017483428 -0.026042448 0.0162927 0.015209641 0.0013817045 -4.4036908e-05 0.009502222
-0.00035712044 0.00027540114 -0.011177716 -0.026247703 -0.00017198475 -0.02073729 0.0053086234 -7.066582e-05
-0.026737839 -0.025878927 -0.027817428 0.013244428 0.0012128876 -0.026076164 0.0012019817 0.000417931
-0.026467236 -0.00026857434 -0.0015526413 -0.007182569 -0.0030937672 0.0010488625 3.6483987e-05 -0.0052527287
-0.0014826347 -0.00022742584 -0.0028121641 -0.008043359 -0.003808558 -0.009058252 -0.00036203663 -0.007239986
-0.023674153 -0.0027779422 0.0019172705 -0.005049963 -0.0022640817 -0.0057423664 -9.5047835e-05 -0.0054810913
-0.011084061 -0.0007071903 -0.0013770176 -0.0033752057 -0.047910284 -0.01181749 -0.030044438 -0.006321757
0.015473628 0.017439844

bn1.weight f4 [64]
00000000: 7292 053f 0000 803f 0000 803f 4258 133f
00000010: 2ddf d63e 3fa0 703f c008 1d3f b231 6f3f
00000020: 8a96 073f c4bb af3e 25da f43e f966 1c3f
00000030: e147 143e 679c 5a3f a6a7 423f 0000 803f
00000040: 0000 803f 5b67 a53e 5287 373f 935c 3a3f
00000050: d520 c63e ec31 3f3f a6a6 5d3f 60fd ad3e
00000060: 7ab1 6d3f 4da3 103f dfce 283f e2af 873f
00000070: e2af 873f 0407 1a3f 0000 803f 0000 803f
00000080: 6fb3 333f b149 123f f6db 493f 19ec 373f
00000090: 8b3e 213f 0000 803f a6e3 063e e27b fe3e
000000a0: 2202 1c3f ceb0 023f f4d5 ff3e 0000 803f
000000b0: c4f6 313f 619d 893e 0000 803f 3fa0 703f
000000c0: d5e1 da3e a417 373f 4da9 263f e7ee 173f
000000d0: 6d01 173e 40a0 703f e770 153f 2534 163f
000000e0: 5f03 263f 5495 963e 0000 803f 4193 593f
000000f0: 0000 803f 0000 803f 9332 3e3f 34eb 463f
0.5217658 1.0 1.0 0.57556546 0.41967145 0.93994516 0.61341476 0.93435204
0.5296408 0.3432294 0.4782268 0.61094624 0.14480545 0.853949 0.7603706 1.0
1.0 0.32305416 0.7169086 0.7279751 0.38696924 0.7468555 0.8658241 0.33982372
0.9284893 0.5649918 0.6594066 1.060055 1.060055 0.60166955 1.0 1.0
0.7019567 0.57143694 0.7885126 0.7184463 0.6298606 1.0 0.13172778 0.4970389
0.60940754 0.5105103 0.4996792 1.0 0.6951716 0.26877883 1.0 0.93994516
0.4275042 0.7152045 0.6510208 0.5934891 0.14746638 0.9399452 0.583754 0.58673316
0.64848894 0.29410803 1.0 0.84990317 1.0 1.0 0.7429592 0.7770264

bn1.bias f4 [64]
00000000: 7b8a ec3c dc2c 5dba ec3b 393a 4fe8 b0bb
00000010: 5ab3 09bc d8ce 0c39 af03 4dbc 5875 5d39
00000020: 0074 97bc a876 b0bb bba7 87b9 9f6e 033d
00000030: 2d95 753c a701 11bb d6ef b1bc a030 02bb
00000040: 5848 a6ba a23d abbc a74b 87bc cea3 acbc
00000050: ae7e a63c 7a81 8dba 1016 81bb 58c9 ff3c
00000060: 0291 b438 d872 9abc dc1d 82bc 5033 a337
00000070: b2ad d236 3761 8cbc e2ab a3ba 8a21 b6b9
00000080: fc68 8fbc 1b30 94bc 8c48 cb3b dae3 263b
00000090: 74e0 93bc 0a39 2039 54ca 6e3c c0ad d23c
000000a0: 128d 82bc 84b4 dc3c b031 0a3d 6f36 60b9
000000b0: c262 3e3b 80bd d63c 7be9 96ba 1610 4eba
000000c0: 97d0 0bbc 0ece a4bc 2fad f2b9 bcf8 78bc
000000d0: 1f29 993c 9c0f 1a3a 486c 9dbc fc81 9cbc
000000e0: e0dd 91bc d1af 823c 8222 883a d831 d1bc
000000f0: 039a de39 97c2 8a39 9004 b6bc 2441 ee3a
0.028874626 -0.00084371655 0.0007066119 -0.005398787 -0.008404577 0.00013428496 -0.012513085 0.00021119916
-0.01848793 -0.0053852387 -0.00025874175 0.03208792 0.01498918 -0.002212623 -0.021720808 -0.0019865409
-0.0012686355 -0.020903412 -0.016515566 -0.021074202 0.020324077 -0.0010796033 -0.0039393976 0.031223938
8.610079e-05 -0.01885359 -0.015883379 1.9455008e-05 6.2787085e-06 -0.0171362 -0.0012487138 -0.00034738734
-0.017506115 -0.018089345 0.0062037166 0.00254654 -0.018051364 0.00015280038 0.014574606 0.025717616
-0.015936408 0.026941545 0.033738792 -0.00021382583 0.0029050563 0.026213408 -0.0011513674 -0.00078606734
-0.008533618 -0.020117786 -0.0004628687 -0.015196022 0.018696366 0.000587696 -0.019216672 -0.01910495
-0.017805994 0.015952976 0.0010386261 -0.025536463 0.00042457887 0.00026466392 -0.022218972 0.0018177372

bn1.running_mean f4 [64]
00000000: 3de3 b83d 0000 0000 0000 0000 0400 0000
00000010: 9c42 913d 0400 0000 27f6 723e 0400 0000
00000020: 236f 343d 8875 5e3e 0400 0000 877b 2b3f
00000030: ec6a 083e 0400 0000 83a8 b23c 0000 0000
00000040: 0000 0000 11e8 883d de3f 6d3e ffcf e23d
00000050: 8f6a 243f 0400 0000 0400 0000 e69c bc3b
00000060: 0400 0000 ce27 483e da5f 833d 0400 0000
00000070: 0400 0000 dcdf fe3c 0000 0000 0000 0000
00000080: 1140 f83c 2689 5a3d 0400 0000 0400 0000
00000090: 940b 113d 0000 0000 5759 863d 3442 a93e
000000a0: 13a9 e63c 62e6 cd3e ead8 ce3c 0000 0000
000000b0: 0400 0000 72c5 8b3e 0000 0000 0400 0000
000000c0: 3192 2b3d 6832 113d 0400 0000 ab2d 073c
000000d0: 06b0 6b3e 0400 0000 9fbd 563d fa43 163d
000000e0: 6360 333d 7bef 533e 0000 0000 c542 dd3d
000000f0: 0000 0000 0000 0000 8d60 3d3d 0400 0000
0.09027717 0.0 0.0 6e-45 0.07092783 6e-45 0.23726712 6e-45
0.0440513 0.21724522 6e-45 0.6698536 0.13322037 6e-45 0.021808868 0.0
0.0 0.06684888 0.23168895 0.11074828 0.64225096 6e-45 6e-45 0.0057560084
6e-45 0.19546434 0.064147666 6e-45 6e-45 0.031112604 0.0 0.0
0.030303987 0.05335345 6e-45 6e-45 0.035411432 0.0 0.06560009 0.3305832
0.028156793 0.4021483 0.025249917 0.0 6e-45 0.27299076 0.0 6e-45
0.041887466 0.03544846 6e-45 0.008250634 0.23016366 6e-45 0.05242693 0.03668592
0.043793093 0.20696823 0.0 0.10803751 0.0 0.0 0.046234656 6e-45

bn1.running_var f4 [64]
00000000: 5a60 0c3e 0400 0000 0400 0000 0400 0000
00000010: 4c7d 0d3a 0400 0000 da85 653f 0400 0000
00000020: fbb3 663e 5995 7f3b 0400 0000 a0b3 013c
00000030: 771f 203c 0400 0000 2c58 613d 0400 0000
00000040: 0400 0000 235c fb39 1ab7 e23e b24c df3d
00000050: 2092 f23b 0400 0000 0400 0000 e3cf 6e3a
00000060: 0400 0000 f5a2 f03e 077a f43e 0400 0000
00000070: 0400 0000 af20 e63d 0400 0000 0400 0000
00000080: 6f9a d93d e55f a73e 0400 0000 0400 0000
00000090: 5013 153e 0400 0000 925c 403c bd14 7e3b
000000a0: f216 bc3d 6f69 333c f767 433c 0400 0000
000000b0: 0400 0000 578a b23c 0400 0000 0400 0000
000000c0: 4a65 4539 465f 153e 0400 0000 3505 f536
000000d0: fc44 4a3b 0400 0000 c75f a33e 7439 1f3e
000000e0: a601 643e 6bfa f23b 0400 0000 09e0 9f3f
000000f0: 0400 0000 0400 0000 c617 7e3e 0400 0000
0.1370863 6e-45 6e-45 6e-45 0.0005397394 6e-45 0.89657366 6e-45
0.22529595 0.003899893 6e-45 0.007916361 0.009773127 6e-45 0.055015728 6e-45
6e-45 0.00047943098 0.4428032 0.109033 0.0074026734 6e-45 6e-45 0.0009109957
6e-45 0.46999326 0.4774935 6e-45 6e-45 0.11236703 6e-45 6e-45
0.10625159 0.3269035 6e-45 6e-45 0.14558148 6e-45 0.0117408205 0.0038769685
0.09184064 0.01095043 0.011926643 6e-45 6e-45 0.021794481 6e-45 6e-45
0.00018825117 0.14587125 6e-45 7.302175e-06 0.0030863872 6e-45 0.3190901 0.1554926
0.22266254 0.007415106 6e-45 1.2490245 6e-45 6e-45 0.24813756 6e-45

bn2.weight f4 [32]
00000000: 6735 463e 090e a63e 7891 be3e 2e2b 103f
00000010: 7321 943e d3d0 9b3e b298 4e3e c992 633e
00000020: ea25 6b3e 0072 293f 8250 663e e3f7 9b3e
00000030: 5f51 1a3c addc 8b3e c79c 1d3f 912d 0e3f
00000040: 47ac 083f ba4d 263e b49d 173f 156d ab3e
00000050: 4b5c 2c3d 0870 063f ac87 223f 4431 9f3e
00000060: 0821 d83d 436f a53e 18c0 b03e dc8e 3d3f
00000070: 0eef 4c3e 0a89 0a3f b3b4 1f3f a2c7 063f
0.19356309 0.32432583 0.3722036 0.56315887 0.2893177 0.30432758 0.20175436 0.22223963
0.22963682 0.66189575 0.22491649 0.3046256 0.009418814 0.273168 0.6156735 0.5553828
0.53387874 0.16240588 0.5922501 0.3348166 0.042080205 0.52514696 0.6348827 0.31092274
0.10553175 0.32311448 0.34521556 0.7404611 0.20013067 0.54115355 0.623851 0.52648365

bn2.bias f4 [32]
00000000: e72f 7bbb 0d19 36bc 5349 1dbc 00be 80bb
00000010: 05af 5b3c 5a03 0dbc dc4c 82bb 1cd2 d43a
00000020: 0399 babb 18ee 1fbc 74b3 0bbc fb21 67bc
00000030: 0913 8b3a 95d2 2ebc 8445 27bd 4d3e 80bc
00000040: 38b5 71bb 0e25 b6bb aa30 5abc 4060 16bc
00000050: d408 303b bbf1 75bc 64fe 2abc 518d a4bb
00000060: efd8 b8b9 e6ca 02bc 659e 94bd e461 59bc
00000070: 98c7 2bbd 5feb 82bc 80da a83c cf09 0e3d
-0.0038328113 -0.011114371 -0.009600001 -0.0039288998 0.013408427 -0.008606756 -0.0039764475 0.0016236934
-0.00569451 -0.009761356 -0.008526672 -0.014107223 0.0010610531 -0.010670324 -0.04083778 -0.015654707
-0.0036881696 -0.0055586165 -0.0133172665 -0.009178221 0.002686073 -0.015011246 -0.010436628 -0.005021729
-0.00035256843 -0.007982945 -0.07256774 -0.013267968 -0.041938394 -0.015981374 0.020612001 0.034677323

bn2.running_mean f4 [32]
00000000: 1cfd c33d 3bba 473d 186b 883e 313e e93d
00000010: 6df4 723e c281 033e 89c8 a23d 4ee7 183e
00000020: 32bf 5c3e 60eb 9a3d 17cc 163e 8b75 6f3e
00000030: ed42 c13d fb3f 5f3e ef42 a93e 87e9 5e3e
00000040: e0df 083e 1cf6 2b3e 6ca9 3b3e 8fb5 6b3d
00000050: 1fb1 0c3e bd65 423e 6dcf c63d 8404 273e
00000060: 7da9 b13d d487 223e dafb fb3e 74b8 743d
00000070: fd56 b03e 719a b73d c64f 2a3c 3938 663d
0.09569761 0.048761588 0.26644206 0.11388815 0.23726054 0.12842467 0.07948405 0.14931986
0.2155731 0.075644255 0.14726292 0.23384683 0.09436593 0.2180175 0.3305888 0.21768771
0.13366652 0.16793102 0.18326348 0.057546195 0.13739441 0.18984123 0.09707532 0.16310316
0.086749054 0.15872127 0.49215585 0.05974622 0.34441367 0.08965004 0.010394996 0.05620596

bn2.running_var f4 [32]
00000000: a5ae 933f b03f 603e c3dc 943f bc02 853f
00000010: 6fd2 823e 721e d93f fa7f 4b3f 136f 3140
00000020: ecc7 223f 780e d33c bf44 493e eabc 903e
00000030: 3e9a 8b3f 1f4f 283f 26df a63d e059 0e3f
00000040: 535c 0d3f ddb4 e63e 056a 5940 98aa bb3e
00000050: c9a6 1140 be76 603e 942e 4c3d 525f 2d3f
00000060: a7b9 6d3f ce3d 3540 f0b0 c83d d0d2 6b3c
00000070: 0e63 8e3d 3637 343f 69fb d73b f6eb b13d
1.1537672 0.21899295 1.1629871 1.039146 0.25551173 1.6962416 0.7949215 2.7724044
0.63586307 0.025763735 0.19655131 0.2826913 1.0906446 0.6574573 0.08148031 0.5560589
0.55219 0.45059863 3.397096 0.3665359 2.2758048 0.21920297 0.049849108 0.6772357
0.9286141 2.8318973 0.09799373 0.014393523 0.06952487 0.70396745 0.0065912497 0.08687584

exp_avg f4 [32]
00000000: 61ac fd39 68ed 663d 08bc 08bd 3130 3d3c
00000010: 114d c439 95ae d93c c023 0ab9 2079 8ab7
00000020: f49a afbc d138 2bbf 5d75 57bd 02c3 dfbd
00000030: e15b 5937 5550 85bd 082e 31bf 7a47 4ebd
00000040: 814f 393d 8469 fabc 81c2 b03a a786 273d
00000050: 9086 bfb6 51f7 32be 9565 51bf 5eb3 0bbc
00000060: f0cc f9b8 bc14 bb3b e562 03bf 94c6 8bbf
00000070: 530e b3bd 0e73 6b3d 26dd d33f e5e0 44be
0.00048384353 0.056378752 -0.033382446 0.011547134 0.00037441452 0.026572505 -0.00013174023 -1.6507285e-05
-0.021436192 -0.6688357 -0.05260216 -0.10925867 1.29556e-05 -0.06509463 -0.69210863 -0.050361134
0.045241836 -0.030567892 0.0013485701 0.0408999 -5.7079087e-06 -0.17477156 -0.81795627 -0.008526651
-0.00011911418 0.005709259 -0.51322776 -1.0919976 -0.087429665 0.05748277 1.6551864 -0.19226415

exp_avg_sq f4 [32]
00000000: 1a2b 3638 b64f 953c 2c1b 163b 6673 fb3a
00000010: d6fa 0039 8dbd ab3a c39b df3a 6535 4538
00000020: 444a 6e3a 6f97 0640 c9ae c23b c2cd c33c
00000030: 9627 8d38 ba3c 323c 1a80 2940 11a4 243c
00000040: e632 db3b 6d79 5c3b dcce 1239 a158 8e3b
00000050: cff1 6338 5dfc 973d 83f7 fe3f bca5 f039
00000060: 839c 1d38 9fd9 8e39 b1e2 963f 54fd 0c41
00000070: 214b 2c3e 3a43 593c 5053 3c40 dc2a 353d
4.3432323e-05 0.018226486 0.002290438 0.0019184172 0.00012300475 0.0013102755 0.001705997 4.7018188e-05
0.0009090046 2.1029928 0.005941246 0.023901824 6.7307774e-05 0.010878736 2.6484437 0.010048882
0.006689417 0.0033641711 0.00014000706 0.0043440615 5.434622e-05 0.07421181 1.9919285 0.0004589985
3.757748e-05 0.0002724649 1.1787931 8.811848 0.16825534 0.013260657 2.942585 0.044230327

exp_avg f4 [64]
00000000: 3e00 24bf 0000 0000 0000 0000 0400 0000
00000010: b3c9 983e 0400 0000 7e29 98bd 0400 0000
00000020: af12 143d 0676 c2bb 0400 0000 4e62 d0b9
00000030: 60d2 92be 0400 0000 7f03 003f 0000 0000
00000040: 0000 0000 dc11 783e 469b 77be cabe 813d
00000050: 8bc2 5ebe 0400 0000 0400 0000 b094 6fbe
00000060: 0400 0000 92e1 d5bd d4dd df3d 0400 0080
00000070: 0400 0080 d7f1 9b3c 0000 0000 0000 0000
00000080: 4afc 0a3d b6e0 ab3e 0400 0000 0400 0000
00000090: 11fc b43d 0000 0000 fa9f edbe dfe7 edbe
000000a0: d829 ca3e b5e4 d0be 3648 1dbf 0000 0000
000000b0: 0400 0000 ed12 81be 0000 0000 0400 0000
000000c0: ca23 e2bc 12fd 94bc 0400 0000 f36d 70be
000000d0: b096 75be 0400 0000 df51 ca3e 1fda b13d
000000e0: 0434 d63d 69b4 42bf 0000 0000 06f7 663e
000000f0: 0000 0000 0000 0000 751a 9e3e 0400 0000
-0.6406287 0.0 0.0 6e-45 0.29841384 6e-45 -0.07429789 6e-45
0.03615063 -0.0059344796 6e-45 -0.00039746094 -0.28676128 6e-45 0.50005335 0.0
0.0 0.24225563 -0.24180326 0.06335218 -0.217539 6e-45 6e-45 -0.23396564
6e-45 -0.10443415 0.10930982 -6e-45 -6e-45 0.019036217 0.0 0.0
0.033932008 0.33569878 6e-45 6e-45 0.0883714 0.0 -0.46411115 -0.46465966
0.3948505 -0.4079949 -0.6143831 0.0 6e-45 -0.25209752 0.0 6e-45
-0.027604956 -0.01818708 6e-45 -0.23479442 -0.23983264 6e-45 0.39515588 0.086841814
0.1045914 -0.76056534 0.0 0.2255517 0.0 0.0 0.3087956 6e-45

exp_avg_sq f4 [64]
00000000: 2740 833f 0000 0000 0000 0000 54e8 9239
00000010: b3b9 fd3e fcb9 4f33 7834 d73e 383e 6737
00000020: 0700 a43e 73e1 7c3d 336a 9139 a0a1 373e
00000030: ff67 123f 349b a039 0d50 973e 0000 0000
00000040: 0000 0000 f056 e63e b41a d13e 394d b93e
00000050: 1d5c 233f 09a5 533b 5b6c 373a f0ce da3e
00000060: 32ee 6737 2758 733e 2a4d cd3e 6c40 802d
00000070: 32c4 a632 9266 983e 0000 0000 0000 0000
00000080: 4fc8 ce3e 3772 a33e e871 2739 58e6 a639
00000090: d801 c73e 0000 0000 7b16 143f 3762 7e3f
000000a0: 1eae 943e e721 813f d36c 993f 0000 0000
000000b0: 6ed9 ea3a f945 eb3e 0000 0000 1e69 9a30
000000c0: b960 f33d 35b5 963e e383 0f3b d7b7 c73d
000000d0: 3ba6 f93e a230 b030 e6e5 e83e 94e9 9c3e
000000e0: de10 a33e 0ecb 9a3f 0000 0000 468b 823e
000000f0: 0000 0000 0000 0000 09ba 873e cab3 253b
1.0253953 0.0 0.0 0.00028020388 0.4955574 4.8365095e-08 0.42032218 1.3783159e-05
0.3203127 0.061738443 0.0002773568 0.17932749 0.57189935 0.00030633213 0.2955326 0.0
0.0 0.44988203 0.40840685 0.3619173 0.6381243 0.0032294414 0.0006997042 0.42736006
1.3824132e-05 0.23764096 0.40097934 1.4580524e-11 1.9414163e-08 0.29765755 0.0 0.0
0.40387198 0.31923077 0.00015968794 0.00031833607 0.38868594 0.0 0.578468 0.99368614
0.2903909 1.0088471 1.1986336 0.0 0.0017917582 0.45951822 0.0 1.1234851e-09
0.11883683 0.29435125 0.002189868 0.097518615 0.48759636 1.2819508e-09 0.454879 0.30646956
0.31848806 1.2093217 0.0 0.25496882 0.0 0.0 0.2650912 0.0025284165

exp_avg f4 [32, 128]
00000000: 1e53 86b8 36c3 f633 0134 0935 3389 14b6
00000010: 3cfd f439 73fd bb33 68ef 3337 18d1 2d34
00000020: 25bb 67b8 2810 a439 34bf 58b4 3c61 28ba
00000030: fbc2 1537 686a a9b5 a313 ea39 dc32 97b5
00000040: 7883 48b5 f339 9339 792c 8539 838d 3939
00000050: c33e be39 b71f 80b4 41d4 86b5 0b90 ecb7
00000060: 20f7 8a33 b1a8 203a c407 f0b9 52d8 1a32
00000070: 7a6c 91b2 b3d6 32ba 6e57 2bb5 ed4c 00b4
00000080: 3cfa 833a e57f 8bb9 a727 3c35 40d3 ab35
00000090: 85d9 223a 2106 4633 da08 f3b7 6680 c4b6
000000a0: 0b50 a4b7 a987 beb9 f074 9bb8 aab3 23b3
000000b0: 2c1a c135 9be9 9737 226b 6db5 693d 1fb5
000000c0: 225b c637 fff3 6bb9 a156 bfb3 17f7 83b8
000000d0: db7a 3538 f115 8534 cad2 25ba 9989 56ba
000000e0: 557b d639 7aad dc38 fd0c f034 503f 94b9
000000f0: 1bb3 a734 f21e 0634 95b5 10ba 8f8a 8935
00000100: 2957 8338 15d2 f9b4 5462 9434 080a 01b6
00000110: e20b 2db9 6f09 8833 db72 61b8 065a 9533
00000120: 7edf 8737 6b51 7bb9 716f e8b3 28f7 7739
00000130: 6333 a938 8a73 89b5 da17 75b7 1718 83b5
00000140: cda2 05b5 d2a3 42b9 5f32 7cb8 fc3e d2b8
00000150: 2f50 5538 0b8a fcb4 02c9 16b6 33a6 6339
00000160: b544 2133 9316 0eb8 8cd0 2ab8 5ee6 ef31
00000170: b628 9bb2 1956 26b7 93bb e6b4 0840 52b4
00000180: 27cc 0f38 19b9 21b8 5b4a 4136 0e3f 9835
00000190: f254 33b8 94fe 9a33 ac0d 0f39 86f9 ce39
000001a0: 83a8 d2b7 cba6 5039 3087 0c3a 38a7 d8b3
000001b0: a638 ec35 a19b 4c39 6a39 2cb5 b190 deb4
000001c0: 5767 b3b7 9c55 b6b8 14e9 5ab4 af99 f8b9
000001d0: 9faf bd38 dc50 9734 c5ba 59b8 6807 1438
000001e0: 998c beb8 9522 a239 4868 f334 8287 4137
000001f0: 246a 0d34 7e0e fb33 db6c 4ab8 8ac7 8a35
00000200: 12dc 953c dbae 33b8 00cb 4c38 15a5 83b9
00000210: f66f 743b 4597 f136 0205 bc39 17fb 6037
00000220: 726f c3bc e6ff e2bb 7150 6cb7 e234 593c
00000230: 34aa a93b db3e 15b9 3e85 9cbc 26bd 0eb9
00000240: 6017 97b8 5fa9 8ebb 34c1 16bc fe01 64bc
00000250: e367 853c 1615 82b8 2646 4db9 d9e9 b23b
00000260: ffe8 f236 b711 7dbc a12e 03bd b99e 5d35
00000270: 179a b8b4 b595 42bc 24e0 8ab8 6520 acb7
00000280: 7ea4 f23a 5dde 9cbc b9d4 cf39 fa4f 1939
00000290: 6748 f1bc bd59 1b37 b497 4a3b 3f30 563c
000002a0: 3347 9cbb 8932 6c3b 274f a43b 378a 2ab7
000002b0: 2894 0f39 03c3 f73b 5746 48b8 4bbb 51b8
000002c0: 2336 4bbc b599 1ebd 17e5 03b8 57e8 22bc
000002d0: f25c 633b fa6d 0f38 f397 5ebd 705a a33c
000002e0: 5ceb e5bc 01c4 423c 4a93 6338 1471 31bc
000002f0: d22c 9337 498b 9d37 f953 aabc b887 c338
00000300: e45f 163d cba8 48b8 5087 3a38 c7a5 81b9
00000310: 6296 f1bc 242b 0637 3425 193b d7a9 4037
00000320: d7f4 613b dd18 c9bc f016 6bb7 dcb8 d53c
00000330: ce31 243c 0ad4 13b9 7d16 013c 5dd1 dab8
00000340: 0e56 aeb8 4ef2 b3bc e42b abba 64c4 63ba
00000350: 67fc 7e3c a6e7 8bb8 6ef7 75b9 7dab 953c
00000360: d078 a336 c9d1 d9ba 0ddb 263c fc1d 3035
00000370: 0640 87b4 af8f bb3b b172 a2b8 383f b7b7
00000380: 8895 853c 62ab ff3b 21e2 c039 ba75 0e39
00000390: 8846 efb9 93e7 0f37 fcb8 2d3c a824 d23c
000003a0: f5f4 ff3b cca3 c23c 1935 1a3d 5cc5 58b7
000003b0: 277b 3339 b9b9 8e3c e0a3 8fb8 e0b2 57b8
000003c0: f483 e3bc 3f0e 19bc 0785 ccb7 a160 1cbd
000003d0: b9d9 293c 3c70 0538 5e97 78bb dd06 593c
000003e0: 8864 83bb 6a71 ce3c e1ba 6738 bc62 513c
000003f0: 6b8c c937 b7d4 7837 5e47 b73b fd2d fe38
-6.4051e-05 1.1490776e-07 5.111215e-07 -2.213358e-06 0.0004672798 8.753968e-08 1.07249725e-05 1.6187948e-07
-5.5248984e-05 0.00031292555 -2.0186127e-07 -0.00064231805 8.9264895e-06 -1.262245e-06 0.00044646589 -1.1265179e-06
-7.469712e-07 0.000280812 0.00025400872 0.00017695692 0.00036286385 -2.3864933e-07 -1.0045552e-06 -2.8200468e-05
6.4710775e-08 0.00061286526 -0.00045782153 9.013165e-09 -1.6929551e-08 -0.0006822154 -6.382969e-07 -1.1948914e-07
0.0010069082 -0.00026607435 7.009316e-07 1.2801975e-06 0.00062122225 4.610604e-08 -2.897198e-05 -5.8562027e-06
-1.9587596e-05 -0.000363407 -7.412757e-05 -3.81148e-08 1.4387238e-06 1.8109384e-05 -8.844528e-07 -5.932148e-07
2.3645876e-05 -0.00022502242 -8.909888e-08 -6.292591e-05 4.326818e-05 2.4789145e-07 -0.00063256605 -0.0008183956
0.0004090915 0.0001052273 4.4712934e-07 -0.0002827593 3.123649e-07 1.249098e-07 -0.0005520222 1.0247621e-06
6.2628016e-05 -4.653272e-07 2.763869e-07 -1.9228337e-06 -0.00016502992 6.3347095e-08 -5.3751148e-05 6.954728e-08
1.6197326e-05 -0.00023967556 -1.0823613e-07 0.00023647828 8.0681195e-05 -1.0240922e-06 -1.4608691e-05 -9.767272e-07
-4.978327e-07 -0.0001856231 -6.0128394e-05 -0.00010025312 5.0857834e-05 -4.7039097e-07 -2.2468744e-06 0.00021710321
3.7548222e-08 -3.3876462e-05 -4.0725383e-05 6.982005e-09 -1.8062888e-08 -9.914417e-06 -4.2977317e-07 -1.9581068e-07
3.428399e-05 -3.8557777e-05 2.8802522e-06 1.1343234e-06 -4.2756037e-05 7.217491e-08 0.00013642636 0.0003947729
-2.511242e-05 0.00019898561 0.00053607207 -1.0088701e-07 1.7599857e-06 0.00019512932 -6.415854e-07 -4.1456e-07
-2.1386584e-05 -8.694382e-05 -2.0387625e-07 -0.0004741675 9.044934e-05 2.8184775e-07 -5.1910774e-05 3.5292847e-05
-9.086094e-05 0.00030924813 4.5338152e-07 1.1535247e-05 1.3170262e-07 1.16907344e-07 -4.8261933e-05 1.0339875e-06
0.018293414 -4.2839773e-05 4.882645e-05 -0.00025109263 0.003729818 7.19997e-06 0.00035861885 1.3409902e-05
-0.023856852 -0.006927478 -1.4085425e-05 0.013257237 0.0051777605 -0.00014233163 -0.019106504 -0.00013612639
-7.204595e-05 -0.0043536867 -0.009201337 -0.013916491 0.016284889 -6.2028106e-05 -0.00019576456 0.0054600057
7.2392863e-06 -0.015446118 -0.03202689 8.255989e-07 -3.4384786e-07 -0.011876513 -6.622102e-05 -2.0519083e-05
0.0018512157 -0.019149 0.00039640607 0.0001462101 -0.02945347 9.259614e-06 0.0030913176 0.013073026
-0.00476923 0.0036040863 0.0050143185 -1.016497e-05 0.00013692735 0.007561089 -4.7749225e-05 -5.0003913e-05
-0.012403044 -0.038720805 -3.144619e-05 -0.009943089 0.003469285 3.419628e-05 -0.05434413 0.019940585
-0.02806633 0.011887551 5.425819e-05 -0.010830183 1.7544637e-05 1.8780718e-05 -0.020791994 9.323604e-05
0.036712542 -4.7840917e-05 4.4471875e-05 -0.0002472831 -0.029490653 7.997067e-06 0.0023368122 1.1483636e-05
0.0034478211 -0.024547989 -1.4012432e-05 0.026089124 0.01002164 -0.00014098003 0.007878897 -0.00010434047
-8.3129955e-05 -0.021966126 -0.0013059345 -0.0008688627 0.015563107 -6.6711844e-05 -0.00023457195 0.018270249
4.871843e-06 -0.0016618307 0.010184062 6.560874e-07 -2.5192293e-07 0.0057239155 -7.746125e-05 -2.1844739e-05
0.016306654 0.007802413 0.00036789573 0.00013586032 -0.00045638182 8.577382e-06 0.010603186 0.025652245
0.0078111836 0.023759745 0.037648294 -1.2920555e-05 0.00017116648 0.017422544 -6.8492955e-05 -5.1426585e-05
-0.027772881 -0.009341775 -2.438064e-05 -0.03817809 0.0103668505 3.1814197e-05 -0.0037932019 0.013246265
-0.004009787 0.025200564 5.5248736e-05 0.012779888 2.4026454e-05 1.4831478e-05 0.0055932244 0.0001212023

exp_avg_sq f4 [32, 128]
00000000: 5c32 b138 e466 2630 59da 2230 39d4 7538
00000010: 4f09 2639 6c01 1e31 c28e f038 02a5 4f36
00000020: 09ae 8438 c2b1 0b39 7496 2d39 c8de 4339
00000030: 2376 9438 8e17 8438 5d15 2139 0d88 0731
00000040: 55eb 0a30 9e12 9a39 8ddb ea37 4a7b 8838
00000050: c015 d836 b6f9 4538 a20f 5c39 2d49 2c39
00000060: 3fcb fd38 42ef 7c38 e0ac a838 683c 6f33
00000070: ee90 da31 6bb6 d937 44b2 9f31 3687 6930
00000080: 3852 8238 b04f 8738 0133 4d38 411d e438
00000090: f304 a937 39d1 6b30 7632 ca38 a669 3639
000000a0: 82fc ad38 844a 0039 9f0a 3539 2548 4630
000000b0: 3953 3d38 8954 d538 159e 9430 f31d 9c30
000000c0: 8aa6 6939 2556 7c38 a204 4137 151f 4338
000000d0: 092f c038 33d2 1333 64be 6738 bfe0 5238
000000e0: 02fe 3938 96a9 2339 6dcc ae31 24c4 7938
000000f0: 061d 6730 f8b4 bb30 3916 0639 b6fb 2c39
00000100: 5c8c 0939 5ebe 1730 a44a 2a30 5601 be38
00000110: d931 0b39 b876 0633 5edb 9c35 ed57 3b37
00000120: d857 1637 5a5e 0539 33ae e838 149c d038
00000130: 31fb 8538 9772 5539 1460 3139 f246 d730
00000140: 0494 3630 bdcd 4139 8c12 a738 cbfb 7d37
00000150: 2d00 2639 171a 5739 04a1 9538 ad94 c338
00000160: 6e53 f038 c5e8 a237 682f ae36 ea14 3e31
00000170: 60c7 1733 836d 4938 35a7 1632 a91b 2230
00000180: 22af bc38 d109 f337 02e0 4239 b96c a038
00000190: 2736 0e38 5c8f a830 78c2 bd38 f900 a838
000001a0: 94d4 e937 74dc 2439 1719 1939 81cf 2030
000001b0: 63ef 8039 534e 0339 5b66 2630 bb73 c332
000001c0: 8c55 e438 5f22 8038 37b7 1d38 e6e4 a138
000001d0: 8b80 e138 14ca 5130 a9ee b937 981f c637
000001e0: e365 1e38 22d9 1a39 4e9f b031 d146 b138
000001f0: a440 3e30 1c75 2e30 6e13 c038 25ae da38
00000200: 5ece c339 1064 a032 0561 7332 2670 c838
00000210: dbb1 243a 8909 ba33 6649 0d3b 7639 0236
00000220: f85a ec3a 99dc 9339 2ee4 f138 fc95 c33a
00000230: 6fd3 4439 155e 1b38 fc97 5f3b 0c4e a433
00000240: accf 2e33 ee65 f539 3a4e 5c3b 95c4 623b
00000250: 0338 443a db07 2438 f1c5 af38 f480 ad38
00000260: d95c 2438 cd3e 0e3b 9c02 2d3b aa3e eb34
00000270: 366f 6b34 dcc5 1b3b bafd 2833 5e93 df31
00000280: 0526 393b 6fe0 093b d7c9 8d37 bd65 0a38
00000290: 0bc8 273b 417e a231 ff4c 6238 0d75 5e3a
000002a0: 526a 193b 0835 fb39 d5b2 7339 9441 3f32
000002b0: f25a 3b38 0ccb a939 8fe5 e232 58fd c934
000002c0: 1356 653a 27d6 553b da2e 9437 bcdc 213a
000002d0: 8fab b638 94e5 7732 3952 183b 75d7 0b3b
000002e0: 5861 313b 44ab 9539 02ae 0233 9331 8c3b
000002f0: ec45 4d32 834e b331 62ed 6c3b 24f6 9538
00000300: 069b c43b 19b7 9d32 2273 8032 f898 1137
00000310: 5dd7 003c 5e6f 8933 4521 9238 59c0 da36
00000320: e1b0 9938 c0b5 883b f273 0338 802f 9d3b
00000330: ff5a 183a 5934 3f38 92c9 5c39 c4a4 a133
00000340: f8d5 2633 76e2 9a3b 1a5f 5239 8f56 f038
00000350: 4c4a fd3a 2f13 7538 c858 2238 02db a23a
00000360: 494c 6a38 7060 c038 6dee 0c39 2238 1833
00000370: ade4 2232 0f25 dc38 f8dc 2133 131b df31
00000380: 26e3 5c39 bef4 dd38 b3f7 8438 2056 8537
00000390: f34d 0139 5381 8e31 b518 073a 1193 9e3b
000003a0: ac2e cb38 19a5 b63b 37fd 943b ac80 3c32
000003b0: 3dd6 a738 97ef 083b 6809 ed32 f403 f432
000003c0: 65fa 033c 939e 1539 2fde 1d36 1b82 c43b
000003d0: 09b2 173a 21fd 7f32 fca1 bd38 8c43 d938
000003e0: ffcd db38 19e4 0d3b 7bd9 f532 4b7b 1a39
000003f0: 54c1 4232 4a3d c431 fb1d 2539 b25b 1638
8.449398e-05 6.0536665e-10 5.924555e-10 5.86102e-05 0.00015834461 2.2992834e-09 0.000114706825 3.094145e-06
6.326667e-05 0.00013322293 0.00016554614 0.00018679642 7.0791946e-05 6.298638e-05 0.00015362115 1.9722421e-09
5.0538534e-10 0.0002938704 2.799721e-05 6.50795e-05 6.4398337e-06 4.720102e-05 0.00020986659 0.00016430458
0.00012101838 6.0304308e-05 8.043065e-05 5.5701463e-08 6.3611116e-09 2.595336e-05 4.6477755e-09 8.495705e-10
6.2141975e-05 6.4521446e-05 4.892331e-05 0.00010877336 2.0148675e-05 8.5789825e-10 9.64151e-05 0.0001739623
8.296316e-05 0.0001223479 0.00017265462 7.2134504e-10 4.513862e-05 0.000101723774 1.0813347e-09 1.1359006e-09
0.00022282652 6.016171e-05 1.1504775e-05 4.652057e-05 9.1640344e-05 3.441728e-08 5.5252007e-05 5.0277213e-05
4.4344e-05 0.00015608067 5.087307e-09 5.9548896e-05 8.4078555e-10 1.3657475e-09 0.00012787514 0.00016496968
0.00013117626 5.520401e-10 6.195171e-10 9.060155e-05 0.00013274643 3.130728e-08 1.168675e-06 1.116654e-05
8.961149e-06 0.00012719017 0.00011095069 9.947285e-05 6.388722e-05 0.00020355951 0.00016915827 1.5663473e-09
6.6421557e-10 0.00018482558 7.966635e-05 1.51386e-05 0.00015831059 0.00020513717 7.134865e-05 9.3260176e-05
0.00011459632 1.9420297e-05 5.191123e-06 2.7660527e-09 3.5338758e-08 4.8024125e-05 8.769168e-09 5.8974564e-10
8.9971596e-05 2.8972428e-05 0.00018584731 7.649646e-05 3.390587e-05 1.2264354e-09 9.048445e-05 8.0110454e-05
2.7874754e-05 0.00015722384 0.00014600564 5.850254e-10 0.0002459242 0.00012522312 6.0535904e-10 2.2753616e-08
0.000108878216 6.109918e-05 3.760235e-05 7.719714e-05 0.00010752779 7.632093e-10 2.2164853e-05 2.3618151e-05
3.7765025e-05 0.00014767473 5.140385e-09 8.453208e-05 6.9213457e-10 6.3467254e-10 9.1588925e-05 0.00010427487
0.00037347054 1.8671955e-08 1.4166521e-08 9.5576324e-05 0.0006282606 8.6630344e-08 0.0021558641 1.9404956e-06
0.0018032482 0.00028202383 0.00011534277 0.0014922018 0.00018770782 3.70425e-05 0.003411769 7.651042e-08
4.070141e-08 0.00046805985 0.0033615963 0.0034602035 0.0007485153 3.9107963e-05 8.38152e-05 8.273302e-05
3.9187118e-05 0.0021704913 0.002639926 4.3817755e-07 2.1926539e-07 0.0023769056 3.934631e-08 6.506908e-09
0.0028251421 0.0021038314 1.6902499e-05 3.2996515e-05 0.0025601413 4.729174e-09 5.3954307e-05 0.000848607
0.002340932 0.00047913962 0.00023240906 1.1132574e-08 4.4668974e-05 0.00032385474 2.6414254e-08 3.76235e-07
0.0008748483 0.0032628865 1.7664792e-05 0.00061745546 8.7103916e-05 1.4429492e-08 0.0023242368 0.002133814
0.0027066078 0.00028547097 3.0426243e-08 0.0042783706 1.1948469e-08 5.2185114e-09 0.0036152233 7.150721e-05
0.0059999255 1.8360469e-08 1.4953518e-08 8.678289e-06 0.007863847 6.399817e-08 6.9680194e-05 6.5192985e-06
7.328555e-05 0.004172057 3.1340816e-05 0.004796922 0.00058118993 4.55867e-05 0.00021055926 7.5271174e-08
3.884449e-08 0.0047267033 0.00020062589 0.000114602146 0.001932451 5.8430418e-05 3.8706494e-05 0.0012424889
5.5860994e-05 9.173236e-05 0.00013440261 3.544131e-08 9.481636e-09 0.0001049732 3.7686704e-08 6.493232e-09
0.00021065454 0.00010583688 6.340388e-05 1.589494e-05 0.00012331437 4.1474464e-09 0.0005153523 0.004839309
9.6884876e-05 0.0055738804 0.004546787 1.0972297e-08 8.0030855e-05 0.002089476 2.7594709e-08 2.8407136e-08
0.008055304 0.00014268821 2.352415e-06 0.005996955 0.0005786722 1.4900508e-08 9.042394e-05 0.00010359948
0.000104811035 0.002165085 2.8620653e-08 0.00014732515 1.1336244e-08 5.7113185e-09 0.00015746795 3.5848185e-05

exp_avg f4 [64]
00000000: 4cd4 f6bd 0000 0000 0000 0000 0400 0000
00000010: 52da 9a3d 0400 0000 1004 78bd 0400 0000
00000020: 0b98 b9b8 8745 38be 0400 0000 21c0 203e
00000030: dabe 103d 0400 0000 f1c2 e33d 0000 0000
00000040: 0000 0000 f6fd ba3d 2f52 cfbd a657 50be
00000050: 09a5 353e 0400 0000 0400 0000 c7ba fdbe
00000060: 0400 0000 558f bdbd bd95 1e3c 0400 0000
00000070: 0400 0000 c360 a3b7 0000 0000 0000 0000
00000080: 22f1 393d fe90 55bb 0400 0000 0400 0000
00000090: 22b2 9eb9 0000 0000 181a 133d 36a0 983e
000000a0: 737b 783d c20d 483e b834 64be 0000 0000
000000b0: 0400 0000 0eb9 b43d 0000 0000 0400 0000
000000c0: 4edb 1b3e cad8 9a37 0400 0000 6d4e ebc0
000000d0: 2d71 e23d 0400 0000 3106 4cb9 f9fd 5a3e
000000e0: 1467 b9b9 8857 823d 0000 0000 ff25 0e3e
000000f0: 0000 0000 0000 0000 102b 0fb8 0400 0000
-0.12052211 0.0 0.0 6e-45 0.075611725 6e-45 -0.06055075 6e-45
-8.849808e-05 -0.17995273 6e-45 0.15698291 0.03533826 6e-45 0.111211665 0.0
0.0 0.091304705 -0.10123097 -0.20345935 0.17738737 6e-45 6e-45 -0.49556562
6e-45 -0.09255854 0.009679255 6e-45 6e-45 -1.9476172e-05 0.0 0.0
0.045395978 -0.0032587643 6e-45 6e-45 -0.00030268828 0.0 0.035913557 0.2980973
0.060664605 0.19536498 -0.22285736 0.0 6e-45 0.08824359 0.0 6e-45
0.15220377 1.845918e-05 6e-45 -7.3533235 0.11056743 6e-45 -0.00019457263 0.21385945
-0.0003536275 0.063643515 0.0 0.13881682 0.0 0.0 -3.4133962e-05 6e-45

exp_avg_sq f4 [64]
00000000: 85ff 8b3d 0000 0000 0000 0000 8363 3939
00000010: 6204 363c b69c ce39 01d1 d43b 27e7 503f
00000020: 00cd c839 ec22 7b3d d020 0a3a 2071 253d
00000030: 4a32 b33b 8591 043d 2e77 f23b 0000 0000
00000040: 0000 0000 9a10 2c3c b170 853d efe3 013e
00000050: 35b9 0b3e 205c af3c d8c4 023c 18d1 4d3f
00000060: 1d0e 4639 0eb2 ad3c 92bf 9539 87a1 532a
00000070: e17a d82b 180d 803a 0000 0000 0000 0000
00000080: 4236 0e3c 1790 f73a 435e 223a 49b6 3439
00000090: b7f3 cf37 0000 0000 d104 903d f8f1 8b3e
000000a0: 2f42 ba3b 8655 9f3d 5955 043f 0000 0000
000000b0: f46e 0b3d 5744 d33c 0000 0000 562b a62e
000000c0: b947 9f3d f245 a13a 1b89 e23a efdd fb42
000000d0: 67fe 0e3d 6cc3 c537 6f39 7337 b5f8 d03c
000000e0: 57b7 8539 4ae1 0a3d 0000 0000 784f 3b3d
000000f0: 0000 0000 0000 0000 d3f9 0638 365b b13a
0.06835846 0.0 0.0 0.00017680046 0.011109443 0.0003940814 0.006494642 0.8160271
0.0003829971 0.0613126 0.00052691717 0.040391088 0.0054686414 0.03236534 0.007399461 0.0
0.0 0.010502005 0.06515635 0.12684606 0.1364487 0.021406233 0.0079815015 0.80397177
0.00018888009 0.021203067 0.00028562226 1.8796606e-13 1.5381829e-12 0.0009769527 0.0 0.0
0.008679928 0.0018887547 0.00061938557 0.00017234044 2.4789812e-05 0.0 0.07032169 0.27333045
0.005684159 0.07779984 0.5169273 0.0 0.03404136 0.025789423 0.0 7.556504e-11
0.07777352 0.001230417 0.0017283292 125.933464 0.034910586 2.357523e-05 1.4497301e-05 0.025509218
0.00025504336 0.03390626 0.0 0.045730084 0.0 0.0 3.2180757e-05 0.0013531211

exp_avg f4 [64]
00000000: b650 ecc0 5b04 113f 6bf6 06bf 9522 de3e
00000010: affc ad40 0c5d 543f 26bd 6741 ecd2 bd3c
00000020: 6e55 6441 561f 4640 88c4 013f 08b3 c8c0
00000030: 3cf1 f4bf 657f b0bd dd2e 1741 6fcd 3cbf
00000040: 7ae7 d5bf 110a fc40 fbf5 6441 3c93 6941
00000050: bb67 fcc0 1539 a6be 40d8 c63d 07f0 6dc0
00000060: b11a 343f f828 3441 4e41 6f41 cb34 7fbf
00000070: 3fdc e3bd 6536 4e41 e4a4 acbe c0d7 75bf
00000080: d33a 7741 6f64 1e41 e323 29c0 a760 8e3e
00000090: c56b 6c41 6cf2 fabe a008 15bf 9ca9 04c1
000000a0: e9d5 4441 9236 f2c0 273b dfc0 be94 84bf
000000b0: b817 c93e 7cd5 86c0 e7cb 913e da17 18be
000000c0: 9c14 ae40 bfb5 4e41 df8b 9b3e 255d 2041
000000d0: dcaf febf f894 67bc efab 4641 e31d 4641
000000e0: 54c3 5941 9ba8 c8c0 e5a8 efbe 57d4 4b41
000000f0: 39bc 03bf 1c99 fcbe 39af 4d41 e303 143f
-7.3848524 0.5664727 -0.52719754 0.4338576 5.437095 0.8295448 14.483679 0.023171864
14.270857 3.0956626 0.5069051 -6.2718544 -1.9136119 -0.086180486 9.448941 -0.73750967
-1.6711266 7.876229 14.310054 14.598446 -7.8876624 -0.32465425 0.09709215 -3.717775
0.7035323 11.260002 14.953444 -0.9968993 -0.11125993 12.88828 -0.33719552 -0.96032333
15.451861 9.89952 -2.6428154 0.27808115 14.776311 -0.49013078 -0.58216286 -8.291409
12.302224 -7.5691614 -6.9759707 -1.0357893 0.39275908 -4.21356 0.28475878 -0.14852849
5.440016 12.919372 0.3038015 10.02274 -1.9897418 -0.014134638 12.416976 12.382297
13.610188 -6.2705817 -0.46808544 12.739341 -0.5145908 -0.49335563 12.855279 0.5781843
